…
2021-10-20 17:12:50.701293: I tensorflow/core/common_runtime/gpu/gpu_device.cc:1406] Created TensorFlow device (/job:localhost/replica:0/task:0/device:GPU:1 with 10079 MB memory) -> physical GPU (device: 1, name: NVIDIA GeForce GTX 1080 Ti, pci bus id: 0000:b3:00.0, compute capability: 6.1)
2021-10-20 17:12:50.701551: I tensorflow/compiler/jit/xla_gpu_device.cc:99] Not creating XLA devices, tf_xla_enable_xla_devices not set
Model: "model"
__________________________________________________________________________________________________
Layer (type)                    Output Shape         Param #     Connected to                     
==================================================================================================
input_1 (InputLayer)            [(None, 256, 256, 7) 0                                            
__________________________________________________________________________________________________
conv2d (Conv2D)                 (None, 256, 256, 14) 896         input_1[0][0]                    
__________________________________________________________________________________________________
batch_normalization (BatchNorma (None, 256, 256, 14) 56          conv2d[0][0]                     
__________________________________________________________________________________________________
activation (Activation)         (None, 256, 256, 14) 0           batch_normalization[0][0]        
__________________________________________________________________________________________________
conv2d_1 (Conv2D)               (None, 256, 256, 14) 1778        activation[0][0]                 
__________________________________________________________________________________________________
conv2d_2 (Conv2D)               (None, 256, 256, 14) 112         input_1[0][0]                    
__________________________________________________________________________________________________
batch_normalization_1 (BatchNor (None, 256, 256, 14) 56          conv2d_1[0][0]                   
__________________________________________________________________________________________________
batch_normalization_2 (BatchNor (None, 256, 256, 14) 56          conv2d_2[0][0]                   
__________________________________________________________________________________________________
activation_1 (Activation)       (None, 256, 256, 14) 0           batch_normalization_1[0][0]      
__________________________________________________________________________________________________
add (Add)                       (None, 256, 256, 14) 0           batch_normalization_2[0][0]      
                                                                 activation_1[0][0]               
__________________________________________________________________________________________________
max_pooling2d (MaxPooling2D)    (None, 128, 128, 14) 0           add[0][0]                        
__________________________________________________________________________________________________
conv2d_3 (Conv2D)               (None, 128, 128, 28) 3556        max_pooling2d[0][0]              
__________________________________________________________________________________________________
batch_normalization_3 (BatchNor (None, 128, 128, 28) 112         conv2d_3[0][0]                   
__________________________________________________________________________________________________
activation_2 (Activation)       (None, 128, 128, 28) 0           batch_normalization_3[0][0]      
__________________________________________________________________________________________________
conv2d_4 (Conv2D)               (None, 128, 128, 28) 7084        activation_2[0][0]               
__________________________________________________________________________________________________
conv2d_5 (Conv2D)               (None, 128, 128, 28) 420         max_pooling2d[0][0]              
__________________________________________________________________________________________________
batch_normalization_4 (BatchNor (None, 128, 128, 28) 112         conv2d_4[0][0]                   
__________________________________________________________________________________________________
batch_normalization_5 (BatchNor (None, 128, 128, 28) 112         conv2d_5[0][0]                   
__________________________________________________________________________________________________
activation_3 (Activation)       (None, 128, 128, 28) 0           batch_normalization_4[0][0]      
__________________________________________________________________________________________________
add_1 (Add)                     (None, 128, 128, 28) 0           batch_normalization_5[0][0]      
                                                                 activation_3[0][0]               
__________________________________________________________________________________________________
max_pooling2d_1 (MaxPooling2D)  (None, 64, 64, 28)   0           add_1[0][0]                      
__________________________________________________________________________________________________
conv2d_6 (Conv2D)               (None, 64, 64, 56)   14168       max_pooling2d_1[0][0]            
__________________________________________________________________________________________________
batch_normalization_6 (BatchNor (None, 64, 64, 56)   224         conv2d_6[0][0]                   
__________________________________________________________________________________________________
activation_4 (Activation)       (None, 64, 64, 56)   0           batch_normalization_6[0][0]      
__________________________________________________________________________________________________
conv2d_7 (Conv2D)               (None, 64, 64, 56)   28280       activation_4[0][0]               
__________________________________________________________________________________________________
conv2d_8 (Conv2D)               (None, 64, 64, 56)   1624        max_pooling2d_1[0][0]            
__________________________________________________________________________________________________
batch_normalization_7 (BatchNor (None, 64, 64, 56)   224         conv2d_7[0][0]                   
__________________________________________________________________________________________________
batch_normalization_8 (BatchNor (None, 64, 64, 56)   224         conv2d_8[0][0]                   
__________________________________________________________________________________________________
activation_5 (Activation)       (None, 64, 64, 56)   0           batch_normalization_7[0][0]      
__________________________________________________________________________________________________
add_2 (Add)                     (None, 64, 64, 56)   0           batch_normalization_8[0][0]      
                                                                 activation_5[0][0]               
__________________________________________________________________________________________________
max_pooling2d_2 (MaxPooling2D)  (None, 32, 32, 56)   0           add_2[0][0]                      
__________________________________________________________________________________________________
conv2d_9 (Conv2D)               (None, 32, 32, 112)  56560       max_pooling2d_2[0][0]            
__________________________________________________________________________________________________
batch_normalization_9 (BatchNor (None, 32, 32, 112)  448         conv2d_9[0][0]                   
__________________________________________________________________________________________________
activation_6 (Activation)       (None, 32, 32, 112)  0           batch_normalization_9[0][0]      
__________________________________________________________________________________________________
conv2d_10 (Conv2D)              (None, 32, 32, 112)  113008      activation_6[0][0]               
__________________________________________________________________________________________________
conv2d_11 (Conv2D)              (None, 32, 32, 112)  6384        max_pooling2d_2[0][0]            
__________________________________________________________________________________________________
batch_normalization_10 (BatchNo (None, 32, 32, 112)  448         conv2d_10[0][0]                  
__________________________________________________________________________________________________
batch_normalization_11 (BatchNo (None, 32, 32, 112)  448         conv2d_11[0][0]                  
__________________________________________________________________________________________________
activation_7 (Activation)       (None, 32, 32, 112)  0           batch_normalization_10[0][0]     
__________________________________________________________________________________________________
add_3 (Add)                     (None, 32, 32, 112)  0           batch_normalization_11[0][0]     
                                                                 activation_7[0][0]               
__________________________________________________________________________________________________
max_pooling2d_3 (MaxPooling2D)  (None, 16, 16, 112)  0           add_3[0][0]                      
__________________________________________________________________________________________________
conv2d_12 (Conv2D)              (None, 16, 16, 140)  141260      max_pooling2d_3[0][0]            
__________________________________________________________________________________________________
batch_normalization_12 (BatchNo (None, 16, 16, 140)  560         conv2d_12[0][0]                  
__________________________________________________________________________________________________
activation_8 (Activation)       (None, 16, 16, 140)  0           batch_normalization_12[0][0]     
__________________________________________________________________________________________________
conv2d_13 (Conv2D)              (None, 16, 16, 140)  176540      activation_8[0][0]               
__________________________________________________________________________________________________
conv2d_14 (Conv2D)              (None, 16, 16, 140)  15820       max_pooling2d_3[0][0]            
__________________________________________________________________________________________________
batch_normalization_13 (BatchNo (None, 16, 16, 140)  560         conv2d_13[0][0]                  
__________________________________________________________________________________________________
batch_normalization_14 (BatchNo (None, 16, 16, 140)  560         conv2d_14[0][0]                  
__________________________________________________________________________________________________
activation_9 (Activation)       (None, 16, 16, 140)  0           batch_normalization_13[0][0]     
__________________________________________________________________________________________________
add_4 (Add)                     (None, 16, 16, 140)  0           batch_normalization_14[0][0]     
                                                                 activation_9[0][0]               
__________________________________________________________________________________________________
up_sampling2d (UpSampling2D)    (None, 32, 32, 140)  0           add_4[0][0]                      
__________________________________________________________________________________________________
conv2d_15 (Conv2D)              (None, 32, 32, 112)  12656       add_3[0][0]                      
__________________________________________________________________________________________________
conv2d_16 (Conv2D)              (None, 32, 32, 112)  15792       up_sampling2d[0][0]              
__________________________________________________________________________________________________
add_5 (Add)                     (None, 32, 32, 112)  0           conv2d_15[0][0]                  
                                                                 conv2d_16[0][0]                  
__________________________________________________________________________________________________
activation_10 (Activation)      (None, 32, 32, 112)  0           add_5[0][0]                      
__________________________________________________________________________________________________
conv2d_17 (Conv2D)              (None, 32, 32, 1)    113         activation_10[0][0]              
__________________________________________________________________________________________________
activation_11 (Activation)      (None, 32, 32, 1)    0           conv2d_17[0][0]                  
__________________________________________________________________________________________________
multiply (Multiply)             (None, 32, 32, 112)  0           conv2d_15[0][0]                  
                                                                 activation_11[0][0]              
__________________________________________________________________________________________________
concatenate (Concatenate)       (None, 32, 32, 252)  0           up_sampling2d[0][0]              
                                                                 multiply[0][0]                   
__________________________________________________________________________________________________
conv2d_18 (Conv2D)              (None, 32, 32, 112)  254128      concatenate[0][0]                
__________________________________________________________________________________________________
batch_normalization_15 (BatchNo (None, 32, 32, 112)  448         conv2d_18[0][0]                  
__________________________________________________________________________________________________
activation_12 (Activation)      (None, 32, 32, 112)  0           batch_normalization_15[0][0]     
__________________________________________________________________________________________________
conv2d_19 (Conv2D)              (None, 32, 32, 112)  113008      activation_12[0][0]              
__________________________________________________________________________________________________
conv2d_20 (Conv2D)              (None, 32, 32, 112)  28336       concatenate[0][0]                
__________________________________________________________________________________________________
batch_normalization_16 (BatchNo (None, 32, 32, 112)  448         conv2d_19[0][0]                  
__________________________________________________________________________________________________
batch_normalization_17 (BatchNo (None, 32, 32, 112)  448         conv2d_20[0][0]                  
__________________________________________________________________________________________________
activation_13 (Activation)      (None, 32, 32, 112)  0           batch_normalization_16[0][0]     
__________________________________________________________________________________________________
add_6 (Add)                     (None, 32, 32, 112)  0           batch_normalization_17[0][0]     
                                                                 activation_13[0][0]              
__________________________________________________________________________________________________
up_sampling2d_1 (UpSampling2D)  (None, 64, 64, 112)  0           add_6[0][0]                      
__________________________________________________________________________________________________
conv2d_21 (Conv2D)              (None, 64, 64, 56)   3192        add_2[0][0]                      
__________________________________________________________________________________________________
conv2d_22 (Conv2D)              (None, 64, 64, 56)   6328        up_sampling2d_1[0][0]            
__________________________________________________________________________________________________
add_7 (Add)                     (None, 64, 64, 56)   0           conv2d_21[0][0]                  
                                                                 conv2d_22[0][0]                  
__________________________________________________________________________________________________
activation_14 (Activation)      (None, 64, 64, 56)   0           add_7[0][0]                      
__________________________________________________________________________________________________
conv2d_23 (Conv2D)              (None, 64, 64, 1)    57          activation_14[0][0]              
__________________________________________________________________________________________________
activation_15 (Activation)      (None, 64, 64, 1)    0           conv2d_23[0][0]                  
__________________________________________________________________________________________________
multiply_1 (Multiply)           (None, 64, 64, 56)   0           conv2d_21[0][0]                  
                                                                 activation_15[0][0]              
__________________________________________________________________________________________________
concatenate_1 (Concatenate)     (None, 64, 64, 168)  0           up_sampling2d_1[0][0]            
                                                                 multiply_1[0][0]                 
__________________________________________________________________________________________________
conv2d_24 (Conv2D)              (None, 64, 64, 56)   84728       concatenate_1[0][0]              
__________________________________________________________________________________________________
batch_normalization_18 (BatchNo (None, 64, 64, 56)   224         conv2d_24[0][0]                  
__________________________________________________________________________________________________
activation_16 (Activation)      (None, 64, 64, 56)   0           batch_normalization_18[0][0]     
__________________________________________________________________________________________________
conv2d_25 (Conv2D)              (None, 64, 64, 56)   28280       activation_16[0][0]              
__________________________________________________________________________________________________
conv2d_26 (Conv2D)              (None, 64, 64, 56)   9464        concatenate_1[0][0]              
__________________________________________________________________________________________________
batch_normalization_19 (BatchNo (None, 64, 64, 56)   224         conv2d_25[0][0]                  
__________________________________________________________________________________________________
batch_normalization_20 (BatchNo (None, 64, 64, 56)   224         conv2d_26[0][0]                  
__________________________________________________________________________________________________
activation_17 (Activation)      (None, 64, 64, 56)   0           batch_normalization_19[0][0]     
__________________________________________________________________________________________________
add_8 (Add)                     (None, 64, 64, 56)   0           batch_normalization_20[0][0]     
                                                                 activation_17[0][0]              
__________________________________________________________________________________________________
up_sampling2d_2 (UpSampling2D)  (None, 128, 128, 56) 0           add_8[0][0]                      
__________________________________________________________________________________________________
conv2d_27 (Conv2D)              (None, 128, 128, 28) 812         add_1[0][0]                      
__________________________________________________________________________________________________
conv2d_28 (Conv2D)              (None, 128, 128, 28) 1596        up_sampling2d_2[0][0]            
__________________________________________________________________________________________________
add_9 (Add)                     (None, 128, 128, 28) 0           conv2d_27[0][0]                  
                                                                 conv2d_28[0][0]                  
__________________________________________________________________________________________________
activation_18 (Activation)      (None, 128, 128, 28) 0           add_9[0][0]                      
__________________________________________________________________________________________________
conv2d_29 (Conv2D)              (None, 128, 128, 1)  29          activation_18[0][0]              
__________________________________________________________________________________________________
activation_19 (Activation)      (None, 128, 128, 1)  0           conv2d_29[0][0]                  
__________________________________________________________________________________________________
multiply_2 (Multiply)           (None, 128, 128, 28) 0           conv2d_27[0][0]                  
                                                                 activation_19[0][0]              
__________________________________________________________________________________________________
concatenate_2 (Concatenate)     (None, 128, 128, 84) 0           up_sampling2d_2[0][0]            
                                                                 multiply_2[0][0]                 
__________________________________________________________________________________________________
conv2d_30 (Conv2D)              (None, 128, 128, 28) 21196       concatenate_2[0][0]              
__________________________________________________________________________________________________
batch_normalization_21 (BatchNo (None, 128, 128, 28) 112         conv2d_30[0][0]                  
__________________________________________________________________________________________________
activation_20 (Activation)      (None, 128, 128, 28) 0           batch_normalization_21[0][0]     
__________________________________________________________________________________________________
conv2d_31 (Conv2D)              (None, 128, 128, 28) 7084        activation_20[0][0]              
__________________________________________________________________________________________________
conv2d_32 (Conv2D)              (None, 128, 128, 28) 2380        concatenate_2[0][0]              
__________________________________________________________________________________________________
batch_normalization_22 (BatchNo (None, 128, 128, 28) 112         conv2d_31[0][0]                  
__________________________________________________________________________________________________
batch_normalization_23 (BatchNo (None, 128, 128, 28) 112         conv2d_32[0][0]                  
__________________________________________________________________________________________________
activation_21 (Activation)      (None, 128, 128, 28) 0           batch_normalization_22[0][0]     
__________________________________________________________________________________________________
add_10 (Add)                    (None, 128, 128, 28) 0           batch_normalization_23[0][0]     
                                                                 activation_21[0][0]              
__________________________________________________________________________________________________
up_sampling2d_3 (UpSampling2D)  (None, 256, 256, 28) 0           add_10[0][0]                     
__________________________________________________________________________________________________
conv2d_33 (Conv2D)              (None, 256, 256, 14) 210         add[0][0]                        
__________________________________________________________________________________________________
conv2d_34 (Conv2D)              (None, 256, 256, 14) 406         up_sampling2d_3[0][0]            
__________________________________________________________________________________________________
add_11 (Add)                    (None, 256, 256, 14) 0           conv2d_33[0][0]                  
                                                                 conv2d_34[0][0]                  
__________________________________________________________________________________________________
activation_22 (Activation)      (None, 256, 256, 14) 0           add_11[0][0]                     
__________________________________________________________________________________________________
conv2d_35 (Conv2D)              (None, 256, 256, 1)  15          activation_22[0][0]              
__________________________________________________________________________________________________
activation_23 (Activation)      (None, 256, 256, 1)  0           conv2d_35[0][0]                  
__________________________________________________________________________________________________
multiply_3 (Multiply)           (None, 256, 256, 14) 0           conv2d_33[0][0]                  
                                                                 activation_23[0][0]              
__________________________________________________________________________________________________
2021-10-20 17:12:51.806289: I tensorflow/core/profiler/lib/profiler_session.cc:136] Profiler session initializing.
2021-10-20 17:12:51.806312: I tensorflow/core/profiler/lib/profiler_session.cc:155] Profiler session started.
…
2021-10-20 17:12:51.907833: I tensorflow/core/profiler/lib/profiler_session.cc:172] Profiler session tear down.
2021-10-20 17:12:51.956367: I tensorflow/compiler/mlir/mlir_graph_optimization_pass.cc:116] None of the MLIR optimization passes are enabled (registered 2)
2021-10-20 17:12:51.976549: I tensorflow/core/platform/profile_utils/cpu_utils.cc:112] CPU Frequency: 3000000000 Hz
2021-10-20 17:13:06.744666: I tensorflow/stream_executor/platform/default/dso_loader.cc:49] Successfully opened dynamic library libcudnn.so.7
2021-10-20 17:13:07.645214: I tensorflow/stream_executor/platform/default/dso_loader.cc:49] Successfully opened dynamic library libcublas.so.10
concatenate_3 (Concatenate)     (None, 256, 256, 42) 0           up_sampling2d_3[0][0]            
                                                                 multiply_3[0][0]                 
__________________________________________________________________________________________________
conv2d_36 (Conv2D)              (None, 256, 256, 14) 5306        concatenate_3[0][0]              
__________________________________________________________________________________________________
batch_normalization_24 (BatchNo (None, 256, 256, 14) 56          conv2d_36[0][0]                  
__________________________________________________________________________________________________
activation_24 (Activation)      (None, 256, 256, 14) 0           batch_normalization_24[0][0]     
__________________________________________________________________________________________________
conv2d_37 (Conv2D)              (None, 256, 256, 14) 1778        activation_24[0][0]              
__________________________________________________________________________________________________
conv2d_38 (Conv2D)              (None, 256, 256, 14) 602         concatenate_3[0][0]              
__________________________________________________________________________________________________
batch_normalization_25 (BatchNo (None, 256, 256, 14) 56          conv2d_37[0][0]                  
__________________________________________________________________________________________________
batch_normalization_26 (BatchNo (None, 256, 256, 14) 56          conv2d_38[0][0]                  
__________________________________________________________________________________________________
activation_25 (Activation)      (None, 256, 256, 14) 0           batch_normalization_25[0][0]     
__________________________________________________________________________________________________
add_12 (Add)                    (None, 256, 256, 14) 0           batch_normalization_26[0][0]     
                                                                 activation_25[0][0]              
__________________________________________________________________________________________________
conv2d_39 (Conv2D)              (None, 256, 256, 1)  15          add_12[0][0]                     
==================================================================================================
Total params: 1,171,721
Trainable params: 1,168,361
Non-trainable params: 3,360
__________________________________________________________________________________________________
Epoch 1/300
 1/35 [..............................] - ETA: 9:43 - loss: 0.6871 - iou: 0.19062021-10-20 17:13:09.640218: I tensorflow/core/profiler/lib/profiler_session.cc:136] Profiler session initializing.
…
